contact_data_pushing_multi_body_multistep_residual_model.pt (torch, 50290 bytes, 6 tensors)

fc1.weight f4 [100, 9]
00000000: 8792 9e3e 2ae0 9cbe 1515 85be 078a 6f3e
00000010: c9bc 5b3e 78fc ad3d 5987 6abc c445 d33d
00000020: b846 cf3d 30b2 67bd 3af7 93be da53 95be
00000030: b9d0 60be 31a1 843e 933e 203d ae3f d73c
00000040: 6c91 93be 90cd a93e 0161 79bd d316 05bf
00000050: 363f 273e 281a 6bbe ad02 f73d d085 0dbe
00000060: 24fd a7bc b941 5dbe 3bc3 3d3d 6cda 0cbe
00000070: 9a7a 61be ff86 653c abb6 5e3e eff3 a63e
00000080: b2e3 573e 95a3 c93c 19fd b5be d4bf 9a3e
00000090: d0ce a0be 610d f3bd 5e34 23be 95b4 42be
000000a0: e9ec 9bbd de78 b8be 28db 3b3e f731 a6be
000000b0: f147 12be bd6b 9b3d 5757 e13d ff86 a1be
000000c0: bca9 12be 6b27 693d 95fa adbe 17bb 023c
000000d0: 0afa 01be ae3e 34bd b438 2ebe 3280 7a3e
000000e0: 1f7e 0d3e ae6f 373e c4a4 bdbd e3c0 76be
000000f0: f462 863e fb45 42be 8ee2 843e 30b6 bd3e
00000100: aa41 e5bd f682 a7be d285 133d 9e4d 0bbe
00000110: cbab 78be 6d38 743e 4027 943e 0534 1e3e
00000120: 2e92 adbd 06e1 433e 5a75 fa3d 76d5 043e
00000130: cfe5 79be 29a3 bfbe 1682 00bd 68fd 413d
00000140: b7ad 733e b11c 883e e08d 143d a6ee 053e
00000150: d533 fb3d 0ba7 f8bc ea1a b53d bd2d da3d
00000160: f035 9c3e 366e 86be 353d 81be 0cbc 083e
00000170: f5e8 02bd a3c9 053e ab44 88be 6b3d 583e
00000180: faa0 91be 077b 91be adc9 6dbd f8c4 933e
00000190: e6d2 c2bd ab73 823e 4644 1fbe 004c 65be
000001a0: b68e 63be 5343 57be 585c 3cbe ebcc 7f3e
000001b0: 3bab 8cbd 8896 8b3e c519 c2be 2241 973d
000001c0: ebb1 133d 6075 c8be 77e7 45be 24cb 93be
000001d0: b22a f4bd 78a7 5bbd 66e8 31be e541 49bd
000001e0: 4faa fe3d 25da f4bd d6fe a7be a558 00be
000001f0: b90d 8ebe b600 203e 04d9 24be 2a78 7fbe
00000200: 3c46 95be f9e2 05be 355c b6be 64ed bcbc
00000210: 43c1 36be 1061 98be 3b09 0f3e 624d 7d3d
00000220: d125 b0be db72 a43e 14f9 993e 14ac 1c3e
00000230: f783 86be 419a 5f3d b4c5 11be 6946 d73d
00000240: 7daf fa3d e6ee 31bd 5f55 803d 564c 573d
00000250: de88 94bc 3b57 16be 9616 ecbd ff6d c23e
00000260: ab36 08be e2a9 87be 71aa 6bbe b69c 9cbe
00000270: 70a1 ab3e 7466 19bd 79d5 cf3e 6e30 c23d
00000280: 6c13 9d3e 411f aa3e 1280 a4be d070 5bbe
00000290: d84e 523d 43f3 2f3e d682 dfbd 5353 70be
000002a0: 3c8b e43d cf81 953e 54de 4c3e 4833 7fbe
000002b0: 5bd3 243e d319 88be ee06 06be 8bce 7abd
000002c0: 6bb9 be3c 28b8 013e d65d bf3d 0eb8 37be
000002d0: 820b 77be 81b8 2f3e b6ad c6bd 24ef 48be
000002e0: 9a6c fcbd 9880 2cbe 1040 6b39 b3b6 b83e
000002f0: 3bf5 c63e 8c97 6cbe 63a4 793e df77 c7be
00000300: 608c 91be e18f a53d fcb7 f33d c45e 89be
00000310: f1b7 92be 08cf 4cbe c28f b13e 20a5 b5be
00000320: 51af 043e 94e8 f53d 205e c3bd aa46 7dbe
00000330: 8f46 833d fb6a 1d3e 600c 813e 4538 aa3e
00000340: 7759 88be 31db 07be 6f08 45be 3738 2d3e
00000350: d072 c1bd d20d d6bd bc76 22be 0da4 2bbe
00000360: dc72 9a3d 3e05 2abe 4c3f f4bc dd54 99be
00000370: a807 b2be 1242 5cbe fea0 5fbe 7436 3c3c
00000380: 56f5 20bd 23a1 94bd 87d5 eebe 14d7 95be
00000390: f0de 893d 46cc ba3e 1dec e83d 0de6 2ebe
000003a0: f388 b4bd 6889 b93d 6ac0 a03e 5817 ec3d
000003b0: fc83 773e 7315 29be 03ec 9dbc b23c 8fbe
000003c0: ec44 6c3e bd9a 94be f554 0d3e 863d 94be
000003d0: 3c22 cc3e 99a2 dd3e 74a7 793e a1f6 52bd
000003e0: 6cc8 12bc dd00 953d 9fb1 c83d 78ec 09be
000003f0: c6bc 91be 201b 243e 5b7f b63e d1fa 8bbc
0.30971166 -0.30639774 -0.25992647 0.23392497 0.21458735 0.0849542 -0.014314496 0.10316041
0.101209104 -0.056566417 -0.28899556 -0.29165536 -0.21954621 0.2590423 0.039122175 0.026275482
-0.28821886 0.33164644 -0.060883526 -0.5198795 0.16332707 -0.22959197 0.12061057 -0.13820577
-0.020506449 -0.21607102 0.046328764 -0.13755196 -0.22019425 0.014009236 0.2174937 0.32607982
0.21082953 0.024614135 -0.3554466 0.30224478 -0.31407785 -0.11867786 -0.15937945 -0.19014199
-0.076135464 -0.36029714 0.1834532 -0.32459995 -0.14285256 0.07588909 0.11002987 -0.31548306
-0.14322561 0.056922358 -0.3398024 0.007979176 -0.12693039 -0.04400509 -0.17013818 0.24462965
0.13817643 0.17913696 -0.09259942 -0.24097018 0.2624737 -0.18972008 0.25954098 0.3705306
-0.11194165 -0.32717103 0.036016293 -0.13603827 -0.24284284 0.2384965 0.28936195 0.15449531
-0.08475147 0.19128808 0.12229414 0.12972054 -0.24404071 -0.3742917 -0.03137406 0.047360808
0.23796736 0.2658439 0.036268115 0.13079318 0.122657456 -0.03035309 0.08843024 0.10653255
0.305099 -0.2625596 -0.2524201 0.13352984 -0.031960446 0.130652 -0.2661489 0.21117179
-0.28443128 -0.28414175 -0.05805366 0.28861213 -0.09512882 0.25478873 -0.15553388 -0.22392273
-0.22222409 -0.21021776 -0.18394601 0.24980514 -0.06868597 0.27263284 -0.37910286 0.0738547
0.036058348 -0.3915205 -0.19326578 -0.28865921 -0.11922206 -0.053626508 -0.17373809 -0.049135108
0.124348275 -0.1195567 -0.32811612 -0.12533815 -0.27744845 0.15625271 -0.1609841 -0.24948183
-0.29155147 -0.13074864 -0.35617223 -0.023062415 -0.17847161 -0.29761553 0.13968365 0.061841376
-0.34403852 0.32118878 0.30072844 0.15300018 -0.26272556 0.054590467 -0.14235574 0.105114765
0.12240503 -0.043440722 0.06266283 0.052563034 -0.01813167 -0.14681713 -0.115277454 0.37974545
-0.13302104 -0.26496798 -0.23014237 -0.3058831 0.33521605 -0.037451223 0.40592554 0.094818935
0.3067888 0.3322697 -0.3212896 -0.21429753 0.051344723 0.1718264 -0.10913627 -0.23469286
0.11159369 0.292006 0.20006686 -0.24921906 0.1609625 -0.26582202 -0.13088581 -0.06123213
0.023281774 0.12667906 0.0934407 -0.17941305 -0.24125484 0.17160226 -0.097011015 -0.19622475
-0.123254016 -0.1684593 0.00022435212 0.36076888 0.3885897 -0.23104686 0.24379115 -0.38958642
-0.2842741 0.08084083 0.119003266 -0.26830113 -0.2865596 -0.20000851 0.3467999 -0.35477543
0.12957503 0.120072514 -0.09539437 -0.24733987 0.06409942 0.15372841 0.25204754 0.33246055
-0.26630756 -0.13267209 -0.19241498 0.16915976 -0.09445727 -0.10451855 -0.15865606 -0.16761799
0.07541439 -0.16603562 -0.029815339 -0.29947558 -0.34771466 -0.21509579 -0.21838757 0.011487592
-0.03929647 -0.07257297 -0.46647283 -0.29265654 0.06731975 0.36483973 0.1137316 -0.17079945
-0.088151835 0.09059411 0.313968 0.1152789 0.24171442 -0.16512088 -0.019277578 -0.27975994
0.23073167 -0.29024306 0.1380194 -0.2895319 0.3986987 0.43288115 0.24380285 -0.051504735
-0.008958917 0.07275555 0.097995035 -0.13469112 -0.28464335 0.16025972 0.3564404 -0.017087372

fc1.bias f4 [100]
00000000: 8211 0b3d 55b8 ad3e effe 9b3e 13c4 fabd
00000010: 1fde 9e3d 6990 91be ea10 a93e dc50 7ebb
00000020: ae82 2abd 878c 4c3e 213d 72be 38bb 8abe
00000030: 8f65 06be 28e4 cdbd 0858 8ebe b7f9 d6bd
00000040: 328e 33be 3703 923e eab2 13be a3d4 5dbe
00000050: f98b adbe dc23 07be 89b0 243e 925e 763e
00000060: 0b2e 49bd 71b7 b3bd be7a 5bbe 5ba9 1b3d
00000070: df61 be3d 9e22 33bc 1b1a 47ba 73e8 8c3d
00000080: 8529 a8bd e291 34be 376f ab3e 2c04 493e
00000090: 1516 ab3e 9ff0 4d3e f277 51be b8f8 853e
000000a0: fcc6 9a3c fd4f 8bbd 0ddb 253e 1ddb 983d
000000b0: 8ccf 953d 74fc 9c3e 5dbd 75be e66e c6bd
000000c0: 5e7e 443e 1794 963d 6e4b 2dbd 6102 363d
000000d0: 6432 823e c2ef 84bc 148f 843e d085 56be
000000e0: 0952 85be 194c 98be 3f77 833e 5824 5f3e
000000f0: 44bd 50be fb45 263e 0a94 a53c 9d0f de3d
00000100: fb69 e93d f301 c63d 1e9c f2bd 7368 e8bd
00000110: 3676 b3bc 6e5a d83c 0087 5dbd 6970 3cbe
00000120: 3a8c 48be f86e fdbd c2d1 9ebd 4ae4 00bd
00000130: 7aca 6dbe 6d15 903d 3cb9 033d 79b2 2c3e
00000140: 3486 523e 8801 983e 98d6 babd 4624 733e
00000150: f0f7 0a3d 2770 013e e360 463d add9 50be
00000160: ab65 ad3a 15cc 783d 88f8 4e3e bd10 7dbe
00000170: 1044 57be 4c3f 873d fc64 a5be 34a4 f5bc
00000180: e61f c9bd 8a3c bb3d 23e9 4d3d d162 30be
0.033952244 0.33929697 0.30467936 -0.122444294 0.0775721 -0.2843049 0.33020717 -0.003880552
-0.041628532 0.19975482 -0.23656131 -0.27095962 -0.13124679 -0.10053283 -0.27801538 -0.10496848
-0.17534712 0.28518078 -0.14423719 -0.21663146 -0.33895853 -0.13197273 0.16082968 0.24059513
-0.049116176 -0.08775223 -0.21433541 0.038003307 0.09296011 -0.010933546 -0.00075951376 0.06880274
-0.08211044 -0.17633775 0.33483288 0.19630498 0.33415285 0.20111321 -0.20455912 0.2616632
0.018893711 -0.06802366 0.16196842 0.074636675 0.07314977 0.30661356 -0.23998018 -0.09689121
0.1918883 0.07352465 -0.042308263 0.044435862 0.2542907 -0.016227607 0.2589041 -0.20949483
-0.2603915 -0.29745558 0.25676915 0.21791208 -0.20384699 0.16237633 0.020212192 0.10842822
0.11397167 0.096683405 -0.11846183 -0.11348047 -0.021906953 0.026410308 -0.054083824 -0.18402256
-0.19584742 -0.12374681 -0.07754852 -0.031467713 -0.2322177 0.07035337 0.032159075 0.16864957
0.20559007 0.29688668 -0.09122962 0.23744306 0.033927858 0.12640439 0.048432242 -0.20395537
0.0013229152 0.060741503 0.20211995 -0.24713416 -0.21022058 0.0660387 -0.32303607 -0.029985525
-0.09820537 0.09142406 0.050271165 -0.17225195

fc2.weight f4 [100, 100]
00000000: f144 99bc ebed 943d 02f4 123d 2a72 853c
00000010: 8a9e 28bc f044 2e3d 0fe6 6e3d 0882 883d
00000020: d1a3 4b3d 72f3 d63d 9ef1 08bd 374b cd3c
00000030: 7af6 9ebc 539f 863d 487e 273e a02a 623d
00000040: be18 193d 7da5 cd3d a3b9 4cbd e524 acbd
00000050: 9880 b2bd ab40 e4bd f60e 803a 8d7c e1bd
00000060: 7299 81bd 8601 803d a37f ccbd 1294 203c
00000070: 7e9f d3bb 6041 acbd bae0 313d 8cff 2bbe
00000080: dbce fd3d c564 14bd e6c8 0c3c dde4 313d
00000090: ba1c df3c bd6e a5bd f98f 3bbd 18f2 a8bd
000000a0: 757c 943c 5693 cc3d ca16 23bd d6a9 3e3c
000000b0: eab1 c7bd beee a3bd 1ffa dcbd 0da3 69bd
000000c0: a6de b23c f308 bc3b 2504 923d e5b4 a23d
000000d0: 9517 7d3d a3d2 e7bc c9c6 c2bd cf5c 6e3d
000000e0: f9c1 4dbc 09fc 93bd cf55 323d 56aa 1d3c
000000f0: 8330 5abd eee6 6b3d 12ea abbc 7d60 fb3b
00000100: d05f 563d 55c8 8e3c b7b4 e23d 9185 033d
00000110: 555c 34bd 2de9 37bd 4232 9abd aead 1a3d
00000120: 6bd5 f43c 7be5 843c 0a1a 0fbe 5cd5 dc3b
00000130: 686b 69bb 7cdf e8bd 80e4 40bd bad7 c43d
00000140: e9c5 203d 30b2 af3d b2cb 6abd 138c 483d
00000150: d9a2 3f3d 1d7c 353c 2ac3 2b3c 8f5b cc39
00000160: e170 0f3e 9be6 433d 0a0d 083a 809f 11bd
00000170: 1345 24bd 12aa 5d3c cd0d d5bc cb0c 9e3b
00000180: 3374 453d edcb 59bc fb96 79bd 7952 163d
00000190: 9a1f 7c3d 8877 09bd ce50 44bc 2a01 1b3d
000001a0: c4ab 873d 0dd1 b93d b935 2bbd d234 2dbd
000001b0: a4bf 033e 865a a5bc 4432 8dbd e86a 7c3d
000001c0: ae74 f1bc 8122 d23d 6bd4 85be 289d e23d
000001d0: 59fa 50bd 5ebe ca3c 93a9 f6bd 3314 953c
000001e0: 8b1e 8ebe b66a 53bd 92a3 653d 7daa f73d
000001f0: 3577 64be 2ff9 583e 6220 a8bd 3d35 a23c
00000200: 5199 8b3d b1ec a0bd a8a6 8dbd 9674 863d
00000210: 466f 82bc 92f8 bdbd df0f f3bc e873 4dbd
00000220: 17e3 b03d 0fab 5e3d e796 b1bd d247 6cbc
00000230: 1833 b63c 56dc 17bd 704b aebd d71a 123c
00000240: 34f0 16be 06f7 ea3d 3927 733d 12f9 41bd
00000250: 8ca5 b9bb cc68 25be 939d a8bd ee85 843d
00000260: fbaa a9bd 7a1d ba3c a583 233d 2524 ae3d
00000270: e7d2 4e3c 732d 0b3d 6e9e 183c 790e c2bc
00000280: be3a bf3d 990a 1e3e 1e4d 003e 31f1 e8bc
00000290: 0bb4 9e3d ecfd 4abd 925d f0be 38d0 963d
000002a0: c465 8ebd 8217 ad3d d658 d03d ac51 933d
000002b0: 2466 a03d c8fb 6fbd 8bcc 913e 2e71 9bbd
000002c0: 0c6c 95bd 2f4c b83d dc52 0abd 4616 21bd
000002d0: c914 6b3d b859 fe3c d46c 21bb 4bed 6ebd
000002e0: f8c0 84bd 3de5 953c e5d0 f03d b4b0 193e
000002f0: ae0c 39bd b8cd 3c3d 0741 f5bd d345 01bd
00000300: e08b c8bd e566 023d 5ae3 1a3d 5da4 00ba
00000310: e56a 1d3d e6ec 9ebb e126 d23c c78a f3bb
00000320: a535 7cbd bc60 0d3d 8bab d13c cc20 843d
00000330: dd05 54bd 1c48 acbd b9b1 443d 4eaa b4ba
00000340: cb65 183e f523 65bd f4f8 26bd e06c 053e
00000350: 80fa 763c e724 1c3c f8a0 00bc 8338 6f3d
00000360: a90a c73d d831 31be 6dde 8cb8 ea28 06bd
00000370: 0477 debd cd22 213d e6eb cabc 9dfd 6b3d
00000380: 2ca6 033e a8f5 febd 01c3 433d 0652 54bd
00000390: 81c0 b63d 2388 2b3e 519c 0c3d 09d9 a03d
000003a0: 35b7 c33d bb83 863d 1219 493d 0604 d33d
000003b0: ddeb 063b 9f1f 003a edee 043d b011 2abd
000003c0: 8974 ae3d 950a 15bd e2d6 e63d ee49 36bd
000003d0: 6468 e0bd d00c b53d 8a67 eb3d b13d c53d
000003e0: 1063 2cbd 212e 813b d526 5bbe 4268 003d
000003f0: 33ba 133e b51d 383c 29b8 39bd 5b50 093d
-0.018709632 0.07271942 0.035877235 0.01628979 -0.010291705 0.042546213 0.05832487 0.066654265
0.049716774 0.10495652 -0.03343355 0.02506028 -0.019404639 0.065733574 0.16356766 0.05521643
0.03737711 0.1004133 -0.049981724 -0.084054746 -0.087159336 -0.11145147 0.0009770084 -0.11010084
-0.063280955 0.062502906 -0.09985282 0.009800928 -0.006458222 -0.08410907 0.043427207 -0.16796702
0.1239297 -0.036228914 0.00859282 0.04343115 0.027235378 -0.08077762 -0.0457916 -0.08249301
0.018125752 0.099890396 -0.039816655 0.011637172 -0.09750731 -0.08004521 -0.10789894 -0.057040263
0.021834683 0.0057383715 0.07129697 0.07944659 0.061790068 -0.028298682 -0.095105715 0.058193978
-0.012558454 -0.07225806 0.043538865 0.009623131 -0.05326892 0.05759328 -0.020985637 0.0076714144
0.052337468 0.01742951 0.11069625 0.0321098 -0.044033367 -0.044900108 -0.07529117 0.03776329
0.029886922 0.016222706 -0.13974777 0.0067393016 -0.0035616998 -0.11370751 -0.047092915 0.09611459
0.03925124 0.085789084 -0.057323165 0.04896171 0.046786163 0.011076954 0.010483542 0.0003897813
0.14007904 0.047827344 0.0005189931 -0.0355525 -0.040104937 0.013529317 -0.026007557 0.0048233024
0.04820652 -0.013293249 -0.060935 0.036699746 0.061553575 -0.03356126 -0.011982156 0.037842907
0.066245586 0.090730764 -0.04179928 -0.0422867 0.12866074 -0.020184767 -0.06894353 0.06162539
-0.029474583 0.10260487 -0.26138625 0.110651314 -0.05102 0.024748977 -0.120440625 0.018198108
-0.27757677 -0.05161544 0.056064196 0.12093065 -0.22311099 0.21188806 -0.082093015 0.019800777
0.06816352 -0.07857645 -0.06916553 0.06565206 -0.0159222 -0.09275927 -0.029670654 -0.050159365
0.08637064 0.054362353 -0.086713605 -0.01442142 0.02224116 -0.037075363 -0.08510482 0.008917532
-0.14740068 0.11472897 0.059363578 -0.047356673 -0.0056654867 -0.16153258 -0.0823318 0.064708576
-0.08284565 0.022719134 0.039920468 0.08502988 0.012623525 0.03397889 0.009315116 -0.023688542
0.09337376 0.1543373 0.12529418 -0.028435322 0.07749184 -0.049558565 -0.46946388 0.07363933
-0.06953004 0.084517494 0.10173194 0.07193312 0.07831982 -0.058589727 0.28476366 -0.07589947
-0.07295999 0.08998906 -0.033770427 -0.039327882 0.05739287 0.03104864 -0.0024631517 -0.05833177
-0.06482118 0.018297786 0.117585935 0.15008813 -0.045178108 0.046094626 -0.119752936 -0.03156073
-0.09792304 0.03183641 0.037814476 -0.00049073045 0.03843202 -0.004850018 0.025653305 -0.007432315
-0.061574597 0.03451608 0.025594493 0.06451568 -0.051763404 -0.08412191 0.048021052 -0.0013783665
0.14882581 -0.055942494 -0.040764764 0.13029814 0.015074372 0.009530283 -0.007850878 0.058403503
0.0971883 -0.1730417 -6.71715e-05 -0.032753862 -0.10862544 0.03933983 -0.024770688 0.05761491
0.12856358 -0.12449199 0.047793392 -0.051836036 0.08923436 0.16751151 0.034328762 0.07853896
0.09556428 0.06568094 0.049096175 0.10303502 0.0020587363 0.00048875244 0.03245442 -0.041520774
0.08518321 -0.036387045 0.112714544 -0.0445041 -0.10957411 0.088403344 0.11494358 0.09630907
-0.04208666 0.0039422666 -0.21401532 0.031349428 0.14426498 0.011237551 -0.045341644 0.0335239

fc2.bias f4 [100]
00000000: 6512 89bd 88ea d13d 5275 c3bd bc17 e43d
00000010: 62ed 1b3d 82ba 143d 47b5 253d e6ed 20bd
00000020: d30d 66bd fe7f 03bd e14d 893d 9bca 89bd
00000030: 04ea 37bd 62ab c33c 94a2 8fbd 872b a4bd
00000040: 9f6f 4dbc 0141 b33d ed03 da3d 37fc 3abc
00000050: aab3 b23d 1884 8e3d a2af 0b3d a7df 883d
00000060: 7c3f a53d 0090 9e3c d3ee afbc b7c3 87bd
00000070: 1e86 b23d b6ae 213d 95c8 49bd 852e 973c
00000080: cc5c 6f3d 7032 2b3d 543b 9a3d 3e1b db3c
00000090: 6dfd 8cbc 479d d63c f4fb db3c 38c6 0bbd
000000a0: 2956 953d 182a a53d b839 96bd 8e71 1dbd
000000b0: b086 2ebd 7aae aebc 9434 cfbd fadb 9cbd
000000c0: a8ce 643d eb80 cfbd fe07 a33d 2f04 bcbd
000000d0: b854 b1bb 1210 c13d 4d8a f4bc 4d72 343d
000000e0: 1161 913d 4352 1d3d ead0 383d 235d 9aba
000000f0: 9b35 a33d ab75 15bd 6837 953d b8dc 72bd
00000100: 9dae 8dbd 9b77 8c3d 80df 25bb ee52 533c
00000110: 4fe0 79bd 9abd a5bc 2bb9 a1bd 3ef6 aebd
00000120: f56f f8bc f5ad debc c036 f13c ba39 54bc
00000130: c091 9dbd cbde ea3d 4a40 a53d 5af7 e3bc
00000140: d8ba 213d fd50 273d e059 683c e044 713d
00000150: 93eb e53c 52b2 463b 3e7c 5c3c 3657 3e3d
00000160: 1839 9d3d 8b9d 3abd 9ba2 44bc 6727 0c3c
00000170: abf8 9e3d 6cab 973d 1a46 2cbd e979 a1bc
00000180: 60ed a7bc 4214 8ebc 6277 303d ab0c ca3d
-0.066929616 0.102498114 -0.095438614 0.111373395 0.038068183 0.03631068 0.040456083 -0.039289378
-0.056165528 -0.032104485 0.06704307 -0.06728097 -0.04490091 0.023885433 -0.07013431 -0.08016115
-0.01253882 0.08752633 0.1064528 -0.011412672 0.087256745 0.06958789 0.034103043 0.06683283
0.08068749 0.019355774 -0.021476185 -0.066291265 0.08716987 0.039473258 -0.049263556 0.0184548
0.058438107 0.041796148 0.07530847 0.026746389 -0.017210687 0.026198043 0.026853539 -0.034124583
0.07291824 0.08064669 -0.07335228 -0.038438372 -0.042608917 -0.021323431 -0.1011745 -0.07659145
0.055861145 -0.10132011 0.07960509 -0.091804855 -0.0054117106 0.09426893 -0.029851103 0.04405432
0.07098592 0.03840853 0.04512111 -0.0011777024 0.07969209 -0.03648917 0.072859585 -0.059292525
-0.069180705 0.068587504 -0.0025310218 0.01289819 -0.061004933 -0.02023201 -0.07896646 -0.08543061
-0.030326823 -0.027182559 0.029445052 -0.012953216 -0.07693815 0.11468276 0.08068903 -0.027827907
0.03948483 0.04084872 0.014181584 0.058903575 0.028066432 0.003031869 0.013457356 0.04646989
0.076769054 -0.0455604 -0.012001659 0.008554316 0.077622734 0.07405743 -0.04205904 -0.019711452
-0.020498931 -0.017343644 0.043082602 0.098656975

fc3.weight f4 [6, 100]
00000000: a508 813d f508 dd3c 28a8 37bd e49a 223c
00000010: a085 48bd ad0e a73d b25b 9dbd 0776 353d
00000020: 31aa a63c 347e 973d ea8f b2bd 1a5f 013c
00000030: c4ed 3a3c f627 9bbd cf43 d43c a411 a1bd
00000040: b8c3 793d 63dd edbc eeae 15bb e7cf a6bc
00000050: 0f95 1e3d e22f 88bc bd55 c3bd a7e8 783d
00000060: b450 4dbc 6a9f fdba e4dc 903c cbbd 88ba
00000070: dad4 c43b fa70 a43b e3d1 dd3c 8248 e3bc
00000080: 032a c1bd 80e4 173d 691d 403d d1fb b7bc
00000090: 0ff7 66bb 54e7 97bb 36df 3ebd 45a3 06bd
000000a0: d0f0 5d3c cde0 f2bc 2da7 be3c e2c3 453d
000000b0: 7922 22bb d989 c1bd 082b a53b 431f 693d
000000c0: 3e6e f43c 2056 9ebd b71d 8ebc cbf5 d23c
000000d0: cb44 34bd 0694 83bd 98d1 c53d cc9c 51bd
000000e0: 57c1 96bb 4ed3 8d3d c0a5 a83c 67e9 fdb9
000000f0: 114a bcbd d2b1 923c 56c9 4a3d 573a 433d
00000100: 8d68 083c 5431 923d 306a 323d 4832 ad3b
00000110: 41f1 953d 492d 3e3d a312 3837 a806 863d
00000120: 4109 e5bb 4ef5 b33d 9ebf a53d c859 79bc
00000130: ba6c 4a3d 3dec 053d edf8 02bc 4587 8bbd
00000140: 7c49 62bd 6483 8ebd 1082 e43c 3743 de3c
00000150: a7bc 533c 0d07 8fbc 25c6 9ebc fe7b 8c3c
00000160: 0b66 1bbd 190c 7ebc a7cf 06bc fdfc 573d
00000170: 878e 29bd ad1f 643c 894f 32bd 38b7 853c
00000180: 7da4 ca3d da4e aabc 8f64 94bd 2306 283d
00000190: 9f07 953d 9c9c 25bc 7697 463d e0c2 9c3b
000001a0: bde5 8cbd ba0a 12bd 1e3f 8dbd fa6d c53d
000001b0: b19c adbb 54dd edbc 86c7 d1bc faee cc3c
000001c0: 8599 213d 9246 6ebd 12d6 4bbc 9778 f63c
000001d0: 5c78 44bc 9e9e 20bd b26a 01bc 96f8 58bd
000001e0: 4813 663b f370 633d c5a1 6a3d 58cb 94bd
000001f0: f145 993c 8f73 3fbd d84e c63c 84f5 ff3b
00000200: 727c e0bc a805 24bb 092b 7d3d 6664 bcbd
00000210: bf8a 313d 948b 5abc be49 debc ca5d 503d
00000220: 3469 23bc 1232 f4bc 7506 23bd 73de 9b3c
00000230: edbd a23d 7bdb 273d ad96 b43c 358a 70bd
00000240: 9dc2 1c3d b02a c03d 76ac 993c 1ab7 89bd
00000250: c968 0d3c 9ea0 183d 6dff 8dbd aeeb a33d
00000260: c735 513d 5fbc f33c 9e49 a1bd eee4 783c
00000270: 1dde a7bd 8467 8fbd e8fe 99bd 3bc8 933b
00000280: b47a 8fbd 4c7f 293d 5f93 0bbb b6ff 33bc
00000290: 6091 533d 0359 97bd 8f2c a83c 6768 04bd
000002a0: 32cc d53c 7d96 30bc 3f2c a03c 5712 a73d
000002b0: b051 87ba 7980 b5bd 6b49 cabc f9a8 65bd
000002c0: 57e8 b8bd d8d4 8dbd eea8 af3d 8d71 163d
000002d0: 64c2 213c 50b7 36bd 175f 053d ea71 1f3d
000002e0: 7a98 663d bba1 953a 6146 ae3b 0e82 363a
000002f0: fef3 8abd d806 e33c 8ee6 ae3c f395 c4bc
00000300: 8420 d9bc b20e 18bd 1877 753a ed80 1f3c
00000310: 73d0 08bc 0702 8f3c b8f8 473d 311a 7b3d
00000320: 6d7e f2bd 5500 bf3d 3844 343e cff6 0d3e
00000330: b6dc 14be 0f06 a63d ed40 2cbe 1044 9c3d
00000340: b3b4 963e 35e1 963d 893d 863d 8dc0 a33d
00000350: 5b9b 853d 45bd 423e d851 ecbd 3949 3a3e
00000360: 6662 a43e 8df5 e13d a653 e4bd 3fb5 37be
00000370: 053d 70be f360 db3d dbe2 b7bd b7f1 093e
00000380: b8be 4fbd e475 083e fee7 a1be 9e38 4cbe
00000390: ff39 07be e25a 89be 0eb6 873d b01f f43d
000003a0: b107 843d 0298 973e dd7c 4fbe 8e77 d73d
000003b0: 76b3 78bd 0143 253e 0133 b8be 3cf9 b33d
000003c0: 5ffb 34bd 0a2d c93d 10e8 94bd b778 973d
000003d0: 1b1f 10be 0b4a b9bd e0d9 22bd 5af2 1cbc
000003e0: 5848 4a3e 5f07 db3e eb0e f1bb 2634 c93d
000003f0: 290d ac3e 7e07 e0bd 8cdb ce3c ef05 e2bb
0.06300477 0.02698181 -0.0448381 0.009924624 -0.04895556 0.08157096 -0.07683505 0.044302013
0.020344825 0.07397118 -0.08718856 0.007896209 0.011409227 -0.07575981 0.02591124 -0.07864693
0.060977668 -0.02903623 -0.0022839862 -0.020362807 0.038716372 -0.016624395 -0.09537838 0.06076875
-0.012531448 -0.0019349877 0.017683454 -0.0010432539 0.006006819 0.0050183507 0.02707762 -0.027744535
-0.09431841 0.03708315 0.046903048 -0.022458943 -0.0035242473 -0.0046357308 -0.04659959 -0.03287055
0.013546184 -0.029648209 0.023273075 0.04828251 -0.0024739786 -0.094501205 0.00504053 0.05691458
0.029837724 -0.07731271 -0.017348154 0.025751969 -0.04401092 -0.064247176 0.096591175 -0.051174924
-0.0046006846 0.06925069 0.020586848 -0.0004842982 -0.091938145 0.017907057 0.049508415 0.04766306
0.008325708 0.07138315 0.0435583 0.005285535 0.07321406 0.046429906 1.0971594e-05 0.06544238
-0.0069896285 0.087870225 0.08093189 -0.015219159 0.049420096 0.032695998 -0.007993919 -0.0681291
-0.05524586 -0.069586545 0.02789405 0.02713166 0.012923396 -0.017459417 -0.019381592 0.017148968
-0.037939113 -0.015505814 -0.008228219 0.052731503 -0.04139569 0.013923568 -0.043532882 0.016322717
0.09894655 -0.020789552 -0.072457425 0.041021477 0.07276844 -0.010108139 0.04848429 0.004783973
-0.068797566 -0.03565476 -0.06896804 0.09640117 -0.00529822 -0.029036202 -0.025607836 0.025016297
0.03945305 -0.05817277 -0.012441175 0.030086799 -0.011991587 -0.03921377 -0.007898973 -0.052971445
0.0035106707 0.05552764 0.05728318 -0.07265347 0.018710108 -0.046741065 0.024207518 0.00781125
-0.02740309 -0.0025027785 0.06180862 -0.09198837 0.04334521 -0.013338942 -0.027134772 0.050870694
-0.009973813 -0.029809032 -0.03980108 0.01902697 0.07946382 0.040980797 0.022044504 -0.058725554
0.038271535 0.09383142 0.018758994 -0.06724377 0.00863094 0.03726255 -0.06933484 0.08003937
0.051076677 0.029752908 -0.078753695 0.0151913 -0.081966616 -0.07002166 -0.07519323 0.0045099533
-0.07005826 0.041381165 -0.0021297557 -0.010986259 0.051652312 -0.073900245 0.02052906 -0.03232613
0.026098344 -0.010778067 0.019552348 0.08157795 -0.0010324027 -0.08862395 -0.024693212 -0.056069348
-0.0902869 -0.06925362 0.08577143 0.036729384 0.0098730065 -0.044608414 0.032561388 0.038926996
0.056297757 0.0011415997 0.0053184484 0.00069621287 -0.06784819 0.027713224 0.021350171 -0.023997283
-0.026504762 -0.03712339 0.00093637547 0.009735328 -0.008350479 0.017457021 0.04882118 0.061304275
-0.1184052 0.09326235 0.17604148 0.13863681 -0.1453732 0.08106624 -0.16821642 0.076301694
0.29434738 0.073671736 0.06554706 0.079957105 0.06523772 0.19017513 -0.11539048 0.18191995
0.32106322 0.11033163 -0.11148767 -0.17940234 -0.23460777 0.10711851 -0.08978816 0.13471113
-0.050718993 0.13326222 -0.31622308 -0.19943473 -0.13205718 -0.2682715 0.06626521 0.119201064
0.064467795 0.2960816 -0.20262475 0.1052085 -0.060718022 0.16138841 -0.35976413 0.08787772
-0.04418504 0.09823044 -0.07270825 0.073960714 -0.14074366 -0.09047326 -0.039758563 -0.0095792655
0.1975416 0.4277906 -0.0073565147 0.098244 0.3360379 -0.10938929 0.025251172 -0.00689768

fc3.bias f4 [6]
00000000: 52f0 673d c568 393d 1731 b6bc b262 6ebc
00000010: 040d 8e3c b52c 4dbd
0.05662567 0.04526593 -0.022240205 -0.014549898 0.01734019 -0.050091464
